…
Layer (type)                    Output Shape         Param #     Connected to                     
==================================================================================================
input_7 (InputLayer)            [(None, 30)]         0                                            
__________________________________________________________________________________________________
input_8 (InputLayer)            [(None, 30)]         0                                            
__________________________________________________________________________________________________
embedding_6 (Embedding)         (None, 30, 300)      36150000    input_7[0][0]                    
__________________________________________________________________________________________________
embedding_7 (Embedding)         (None, 30, 300)      36150000    input_8[0][0]                    
__________________________________________________________________________________________________
time_distributed_30 (TimeDistri (None, 30, 200)      60200       embedding_6[0][0]                
__________________________________________________________________________________________________
time_distributed_31 (TimeDistri (None, 30, 200)      60200       embedding_7[0][0]                
__________________________________________________________________________________________________
sequential_15 (Sequential)      (None, 30, 200)      721800      time_distributed_30[0][0]        
__________________________________________________________________________________________________
sequential_16 (Sequential)      (None, 30, 200)      721800      time_distributed_31[0][0]        
__________________________________________________________________________________________________
attention (Lambda)              (None, 30, 30)       0           sequential_15[0][0]              
                                                                 sequential_16[0][0]              
__________________________________________________________________________________________________
permute_3 (Permute)             (None, 30, 30)       0           attention[0][0]                  
__________________________________________________________________________________________________
soft_alignment_a (Lambda)       (None, 30, 200)      0           attention[0][0]                  
                                                                 sequential_16[0][0]              
__________________________________________________________________________________________________
soft_alignment_b (Lambda)       (None, 30, 200)      0           permute_3[0][0]                  
                                                                 sequential_15[0][0]              
__________________________________________________________________________________________________
substract_a (Lambda)            (None, 30, 200)      0           sequential_15[0][0]              
                                                                 soft_alignment_a[0][0]           
__________________________________________________________________________________________________
multiply_a (Lambda)             (None, 30, 200)      0           sequential_15[0][0]              
                                                                 soft_alignment_a[0][0]           
__________________________________________________________________________________________________
substract_b (Lambda)            (None, 30, 200)      0           sequential_16[0][0]              
                                                                 soft_alignment_b[0][0]           
__________________________________________________________________________________________________
multiply_b (Lambda)             (None, 30, 200)      0           sequential_16[0][0]              
                                                                 soft_alignment_b[0][0]           
__________________________________________________________________________________________________
concatenate_9 (Concatenate)     (None, 30, 800)      0           sequential_15[0][0]              
                                                                 soft_alignment_a[0][0]           
                                                                 substract_a[0][0]                
                                                                 multiply_a[0][0]                 
__________________________________________________________________________________________________
concatenate_10 (Concatenate)    (None, 30, 800)      0           sequential_16[0][0]              
                                                                 soft_alignment_b[0][0]           
                                                                 substract_b[0][0]                
                                                                 multiply_b[0][0]                 
__________________________________________________________________________________________________
sequential_17 (Sequential)      (None, 30, 200)      1681800     concatenate_9[0][0]              
__________________________________________________________________________________________________
sequential_18 (Sequential)      (None, 30, 200)      1681800     concatenate_10[0][0]             
__________________________________________________________________________________________________
global_average_pooling1d_6 (Glo (None, 200)          0           sequential_17[0][0]              
__________________________________________________________________________________________________
global_max_pooling1d_6 (GlobalM (None, 200)          0           sequential_17[0][0]              
__________________________________________________________________________________________________
global_average_pooling1d_7 (Glo (None, 200)          0           sequential_18[0][0]              
__________________________________________________________________________________________________
global_max_pooling1d_7 (GlobalM (None, 200)          0           sequential_18[0][0]              
__________________________________________________________________________________________________
concatenate_11 (Concatenate)    (None, 800)          0           global_average_pooling1d_6[0][0] 
                                                                 global_max_pooling1d_6[0][0]     
                                                                 global_average_pooling1d_7[0][0] 
                                                                 global_max_pooling1d_7[0][0]     
__________________________________________________________________________________________________
sequential_19 (Sequential)      (None, 300)          241500      concatenate_11[0][0]             
__________________________________________________________________________________________________
dense_38 (Dense)                (None, 100)          30100       sequential_19[0][0]              
__________________________________________________________________________________________________
dropout_27 (Dropout)            (None, 100)          0           dense_38[0][0]                   
__________________________________________________________________________________________________
batch_normalization_11 (BatchNo (None, 100)          400         dropout_27[0][0]                 
__________________________________________________________________________________________________
dense_39 (Dense)                (None, 10)           1010        batch_normalization_11[0][0]     
__________________________________________________________________________________________________
dropout_28 (Dropout)            (None, 10)           0           dense_39[0][0]                   
__________________________________________________________________________________________________
batch_normalization_12 (BatchNo (None, 10)           40          dropout_28[0][0]                 
__________________________________________________________________________________________________
dense_40 (Dense)                (None, 1)            11          batch_normalization_12[0][0]     
==================================================================================================
Total params: 77,500,661
Trainable params: 5,199,841
Non-trainable params: 72,300,820


Starting training at 2021-05-16 10:21:41.501995
Epoch 1/25
320/320 - 93s - loss: 0.5970 - accuracy: 0.6910 - val_loss: 0.5749 - val_accuracy: 0.7200
Epoch 2/25
320/320 - 77s - loss: 0.5145 - accuracy: 0.7431 - val_loss: 0.4793 - val_accuracy: 0.7602
…
