…
Layer (type)                    Output Shape         Param #     Connected to                     
==================================================================================================
input_43 (InputLayer)           [(None, 30)]         0                                            
__________________________________________________________________________________________________
input_44 (InputLayer)           [(None, 30)]         0                                            
__________________________________________________________________________________________________
embedding_41 (Embedding)        (None, 30, 300)      36150000    input_43[0][0]                   
__________________________________________________________________________________________________
embedding_42 (Embedding)        (None, 30, 300)      36150000    input_44[0][0]                   
__________________________________________________________________________________________________
time_distributed_188 (TimeDistr (None, 30, 200)      60200       embedding_41[0][0]               
__________________________________________________________________________________________________
time_distributed_189 (TimeDistr (None, 30, 200)      60200       embedding_42[0][0]               
__________________________________________________________________________________________________
sequential_90 (Sequential)      (None, 30, 200)      721800      time_distributed_188[0][0]       
__________________________________________________________________________________________________
sequential_91 (Sequential)      (None, 30, 200)      721800      time_distributed_189[0][0]       
__________________________________________________________________________________________________
sequential_92 (Sequential)      (None, 30, 200)      721800      sequential_90[0][0]              
__________________________________________________________________________________________________
sequential_93 (Sequential)      (None, 30, 200)      721800      sequential_91[0][0]              
__________________________________________________________________________________________________
global_average_pooling1d_32 (Gl (None, 200)          0           sequential_92[0][0]              
__________________________________________________________________________________________________
global_max_pooling1d_32 (Global (None, 200)          0           sequential_92[0][0]              
__________________________________________________________________________________________________
global_average_pooling1d_33 (Gl (None, 200)          0           sequential_93[0][0]              
__________________________________________________________________________________________________
global_max_pooling1d_33 (Global (None, 200)          0           sequential_93[0][0]              
__________________________________________________________________________________________________
concatenate_46 (Concatenate)    (None, 800)          0           global_average_pooling1d_32[0][0]
                                                                 global_max_pooling1d_32[0][0]    
                                                                 global_average_pooling1d_33[0][0]
                                                                 global_max_pooling1d_33[0][0]    
__________________________________________________________________________________________________
sequential_94 (Sequential)      (None, 300)          241500      concatenate_46[0][0]             
__________________________________________________________________________________________________
dense_203 (Dense)               (None, 100)          30100       sequential_94[0][0]              
__________________________________________________________________________________________________
dropout_144 (Dropout)           (None, 100)          0           dense_203[0][0]                  
__________________________________________________________________________________________________
batch_normalization_68 (BatchNo (None, 100)          400         dropout_144[0][0]                
__________________________________________________________________________________________________
dense_204 (Dense)               (None, 10)           1010        batch_normalization_68[0][0]     
__________________________________________________________________________________________________
dropout_145 (Dropout)           (None, 10)           0           dense_204[0][0]                  
__________________________________________________________________________________________________
batch_normalization_69 (BatchNo (None, 10)           40          dropout_145[0][0]                
__________________________________________________________________________________________________
dense_205 (Dense)               (None, 1)            11          batch_normalization_69[0][0]     
==================================================================================================
Total params: 75,580,661
Trainable params: 3,279,841
Non-trainable params: 72,300,820
__________________________________________________________________________________________________










Starting training at 2021-05-16 11:36:03.813782
Epoch 1/25
320/320 - 101s - loss: 0.6104 - accuracy: 0.6648 - val_loss: 0.5449 - val_accuracy: 0.7124
…
