…
Layer (type)                    Output Shape         Param #     Connected to                     
==================================================================================================
input_10 (InputLayer)           [(None, 30)]         0                                            
__________________________________________________________________________________________________
input_11 (InputLayer)           [(None, 30)]         0                                            
__________________________________________________________________________________________________
embedding_6 (Embedding)         (None, 30, 300)      36150000    input_10[0][0]                   
__________________________________________________________________________________________________
embedding_7 (Embedding)         (None, 30, 300)      36150000    input_11[0][0]                   
__________________________________________________________________________________________________
time_distributed_10 (TimeDistri (None, 30, 300)      90300       embedding_6[0][0]                
__________________________________________________________________________________________________
time_distributed_11 (TimeDistri (None, 30, 300)      90300       embedding_7[0][0]                
__________________________________________________________________________________________________
lambda_4 (Lambda)               (None, 300)          0           time_distributed_10[0][0]        
__________________________________________________________________________________________________
lambda_5 (Lambda)               (None, 300)          0           time_distributed_11[0][0]        
__________________________________________________________________________________________________
concatenate_12 (Concatenate)    (None, 600)          0           lambda_4[0][0]                   
                                                                 lambda_5[0][0]                   
__________________________________________________________________________________________________
dense_28 (Dense)                (None, 200)          120200      concatenate_12[0][0]             
__________________________________________________________________________________________________
input_12 (InputLayer)           [(None, 90)]         0                                            
__________________________________________________________________________________________________
dropout_19 (Dropout)            (None, 200)          0           dense_28[0][0]                   
__________________________________________________________________________________________________
dense_25 (Dense)                (None, 100)          9100        input_12[0][0]                   
__________________________________________________________________________________________________
batch_normalization_13 (BatchNo (None, 200)          800         dropout_19[0][0]                 
__________________________________________________________________________________________________
dropout_18 (Dropout)            (None, 100)          0           dense_25[0][0]                   
__________________________________________________________________________________________________
concatenate_13 (Concatenate)    (None, 300)          0           batch_normalization_13[0][0]     
                                                                 dropout_18[0][0]                 
__________________________________________________________________________________________________
dense_29 (Dense)                (None, 200)          60200       concatenate_13[0][0]             
__________________________________________________________________________________________________
dropout_20 (Dropout)            (None, 200)          0           dense_29[0][0]                   
__________________________________________________________________________________________________
batch_normalization_14 (BatchNo (None, 200)          800         dropout_20[0][0]                 
__________________________________________________________________________________________________
dense_30 (Dense)                (None, 200)          40200       batch_normalization_14[0][0]     
__________________________________________________________________________________________________
dropout_21 (Dropout)            (None, 200)          0           dense_30[0][0]                   
__________________________________________________________________________________________________
batch_normalization_15 (BatchNo (None, 200)          800         dropout_21[0][0]                 
__________________________________________________________________________________________________
dense_31 (Dense)                (None, 200)          40200       batch_normalization_15[0][0]     
__________________________________________________________________________________________________
dropout_22 (Dropout)            (None, 200)          0           dense_31[0][0]                   
__________________________________________________________________________________________________
batch_normalization_16 (BatchNo (None, 200)          800         dropout_22[0][0]                 
__________________________________________________________________________________________________
dense_32 (Dense)                (None, 1)            201         batch_normalization_16[0][0]     
==================================================================================================
Total params: 72,753,901
Trainable params: 452,301
Non-trainable params: 72,301,600


Starting training at 2021-05-18 19:48:29.469683
Epoch 1/25
320/320 - 8s - loss: 0.3181 - accuracy: 0.8450 - val_loss: 0.2651 - val_accuracy: 0.8720
Epoch 2/25
320/320 - 6s - loss: 0.2664 - accuracy: 0.8718 - val_loss: 0.2570 - val_accuracy: 0.8756
…
